mnist.pt (torch, 441396 bytes, 6 tensors)

weight f4 [128, 784]
0.04004595 0.007877965 -0.01666542 0.04487107 0.042735834 0.0338919 0.011995615 0.03425155
0.030102525 -0.01284265 -0.018921029 0.044030376 0.047714654 0.04512253 -0.018858463 0.013697344
0.025308099 0.04518042 0.04946583 0.003987639 0.00781697 -0.0011454093 -0.007807455 -0.011935961
0.04898386 -0.015769765 0.0074363598 0.019984988 0.017985133 0.010537845 -0.0042200726 -0.0003098086
0.04985032 -0.011958628 -0.012099926 0.0074054273 -0.02008398 0.012245127 0.0029073155 0.021747788
0.008613878 0.01727933 0.031038215 0.003597481 0.02690474 -0.0077215126 0.02156192 0.042054113
0.038671784 0.04100967 0.007833562 -0.0042227306 0.02901012 -0.00025142875 0.010011892 0.020057587
-0.013105058 0.015910355 0.03834917 0.043770716 0.03355527 0.0004572058 -0.01718949 0.013275938
-0.010431297 0.033277098 -0.02086312 0.03154156 0.046049606 0.024353752 0.016224217 -0.010010279
0.042793065 0.030895028 0.028958263 0.021550778 0.036902335 0.0014180614 0.031422976 0.036195464
-0.021169726 -0.00027025377 0.03310447 0.0150417825 -0.001834489 0.040705353 -0.012805503 0.03091238
0.015429365 0.04886214 0.009894442 -0.0009401341 0.00070130953 -0.024825558 0.011758773 0.019514255
0.00025296683 -0.031880297 0.0013897215 -0.0085674655 -0.047852475 -0.011300669 -0.0041308817 -0.0037119295
0.061066277 0.0062895427 0.008969311 0.011639924 0.021985032 0.03917703 -0.020282252 -0.0034647237
0.04673972 0.044787865 0.004739347 0.046086483 -0.008877014 0.024485236 -0.0008139811 -0.03841705
-0.031974137 -0.05302709 -0.03247262 -0.015783012 0.0058895443 -0.029269882 -0.049811143 -0.053218763
-0.04928693 -0.022838475 -0.017660024 0.023634141 -0.0058346405 -0.026841935 -0.02588811 0.021256449
0.037461553 0.029151091 -0.009421365 0.014123044 -0.008837758 0.036356106 -0.0020706614 0.026159104
-0.021329276 -0.009219173 -0.019660693 -0.022743843 0.062611744 -0.023081178 -0.044511054 -0.06815982
-0.055013586 0.0064302175 -0.010764535 0.017279891 -0.027671475 -0.020562975 0.054631572 -0.03568842
-0.02212024 -0.010294123 0.019478826 0.04616034 0.03496385 0.015467997 1.11833315e-05 0.011027076
0.048851382 0.02388716 -0.010005131 0.044038408 0.03772253 0.014531556 -0.03595094 0.037071038
0.057589676 0.011957287 -0.028383149 0.027308237 0.042534534 0.053929307 0.029968996 -0.023101328
-0.007148862 0.0160721 -0.009305734 -0.010331712 -0.08132471 0.028095644 0.0045829876 -0.004658668
0.03914608 -0.037569925 -0.0038108083 0.029324595 0.04294213 0.036793187 -0.012765875 0.012673578
-0.01339421 -0.022344995 -0.051815286 0.027722998 -0.019642731 -0.020676265 -0.037436485 -0.0027053147
-0.026302181 -0.023929061 0.023068624 -0.05288221 -0.047981057 0.0413312 0.022292666 0.02405416
-0.022800352 0.037202086 -0.009950855 0.051257867 0.060179397 0.011541389 -0.0154519975 0.03888377
0.002230266 0.026341902 0.028804034 0.045281395 0.006583779 -0.036465682 -0.052580614 0.02069546
-0.015860606 -5.3294367e-05 -0.037718084 0.051206708 0.016735835 -0.040881373 -0.106402695 -0.036535364
-0.024490736 -0.011912484 -0.013895165 -0.114819 -0.05079275 -0.074080735 -0.04312703 -0.0019482648
0.03422755 0.03025327 -0.005120987 0.032020703 -0.020963402 -0.0077056666 -0.0007918667 -0.008807023
00000000: 3907 243d 9512 013c eb85 88bc baca 373d
00000010: c50b 2f3d 3cd2 0a3d 4289 443c 5a4b 0c3d
00000020: 9299 f63c fa69 52bc 4600 9bbc 3259 343d
00000030: 7170 433d 67d2 383d 107d 9abc d36a 603c
00000040: ee52 cf3c 1b0f 393d af9c 4a3d beaa 823b
00000050: c012 003c 8f21 96ba aed5 ffbb 0d8f 43bc
00000060: 4da3 483d 982f 81bc b5ac f33b 8fb7 a33c
00000070: 8f55 933c eda6 2c3c 8948 8abb ce6d a2b9
00000080: d92f 4c3d 1fee 43bc c53e 46bc 3aa9 f23b
00000090: 2987 a4bc c99f 483c a988 3e3b 6b28 b23c
000000a0: 3921 0d3c 628d 8d3c db43 fe3c b7c3 6b3b
000000b0: 5467 dc3c be04 fdbb a0a2 b03c ef40 2c3d
000000c0: 4e66 1e3d c1f9 273d 5758 003c d55e 8abb
000000d0: a2a6 ed3c 32d2 83b9 eb08 243c cf4f a43c
000000e0: 99b6 56bc 6f56 823c 0514 1d3d ec48 333d
000000f0: 4071 093d 20b5 ef39 f9d0 8cbc 5283 593c
00000100: 08e8 2abc 914d 083d 22e9 aabc b931 013d
00000110: 839e 3c3d 8581 c73c a6e8 843c 2702 24bc
00000120: c847 2f3d 9217 fd3c e139 ed3c 428b b03c
00000130: e726 173d 3fde b93a 61b5 003d b241 143d
00000140: 226c adbc d9b0 8db9 8e98 073d cf71 763c
00000150: 3d73 f0ba a8ba 263d 2cce 51bc f63b fd3c
00000160: 73cb 7c3c ab23 483d 4c1c 223c 5573 76ba
00000170: 16d8 373a f85e cbbc dea7 403c 5cdc 9f3c
00000180: a2a0 8439 ea94 02bd 5127 b63a 8e5e 0cbc
00000190: f500 44bd 7126 39bc 595c 87bb d843 73bb
000001a0: a220 7a3d 8218 ce3b 04f4 123c 61b5 3e3c
000001b0: f419 b43c 1878 203d f726 a6bc 6b10 63bb
000001c0: 2672 3f3d 7b73 373d 864c 9b3b 2ec5 3c3d
000001d0: e570 11bc 4395 c83c 5961 55ba 325b 1dbd
000001e0: 50f7 02bd ef32 59bd 0302 05bd 604b 81bc
000001f0: 14fd c03b 64c7 efbc c506 4cbd ebfb 59bd
00000200: 18e1 49bd c117 bbbc c1ab 90bc 639c c13c
00000210: 8330 bfbb 9ee3 dbbc 4d13 d4bc 0122 ae3c
00000220: 4971 193d 45ce ee3c 125c 1abc 5764 673c
00000230: 3ecc 10bc 24ea 143d efb3 07bb 9e4b d63c
00000240: bcba aebc 040c 17bc 760f a1bc 4c51 babc
00000250: 963a 803d bd14 bdbc 3951 36bd 6097 8bbd
00000260: ed55 61bd 93b4 d23b bb5d 30bc 8f8e 8d3c
00000270: 4aaf e2bc af73 a8bc 5bc5 5f3d 052e 12bd
00000280: 8135 b5bc aea8 28bc 0f92 9f3c a012 3d3d
00000290: 4136 0f3d 7b6d 7d3c 0ba0 3b37 e9aa 343c
000002a0: 6318 483d 01af c33c 90ec 23bc 9e61 343d
000002b0: f182 1a3d c315 6e3c 4b41 13bd cdd7 173d
000002c0: 27e3 6b3d 7fe8 433c c783 e8bc 86b5 df3c
000002d0: b138 2e3d fae4 5c3d 8a81 f53c ff3e bdbc
000002e0: 0041 eabb a3a9 833c 1477 18bc 5746 29bc
000002f0: 928d a6bd d628 e63c e32c 963b bda7 98bb
00000300: a457 203d ece2 19bd c1be 79bb 223a f03c
00000310: 16e4 2f3d 74b4 163d f627 51bc d7a4 4f3c
00000320: 6373 5bbc da0c b7bc 443c 54bd 571b e33c
00000330: cbe9 a0bc 4561 a9bc 0057 19bd a64b 31bb
00000340: ac77 d7bc e106 c4bc 69fa bc3c 049b 58bd
00000350: c987 44bd e84a 293d 1c9f b63c 3b0d c53c
00000360: cec7 babc 3761 183d e908 23bc c5f3 513d
00000370: ac7e 763d 1818 3d3c 602a 7dbc 9744 1f3d
00000380: a829 123b f9ca d73c 70f6 eb3c fc78 393d
00000390: bebc d73b 0a5d 15bd c55e 57bd 8689 a93c
000003a0: 1aee 81bc 6488 5fb8 477e 1abd 20be 513d
000003b0: 9719 893c 3a73 27bd a8e9 d9bd 1ba6 15bd
000003c0: cca0 c8bc 942c 43bc 8ca8 63bc 3926 ebbd
000003d0: 0f0c 50bd a4b7 97bd f8a5 30bd eb5c ffba
000003e0: 3032 0c3d b5d5 f73c f4cd a7bb 2428 033d
000003f0: 71bb abbc d17f fcbb 4695 4fba 554b 10bc

bias f4 [128]
-0.038782552 -0.030883288 -0.022958368 -0.018009147 0.0029837643 -0.009846219 0.040414125 0.03225476
-0.0063443263 0.014083672 -0.032481596 0.036235586 -0.021455936 -0.031806804 0.022662867 0.020300072
-0.0025952342 -0.03013515 0.020538744 -0.028237449 -0.01976664 0.032140017 0.015173649 -0.00419648
-0.022665082 -0.012814086 -0.01113532 0.0036393485 -0.02413384 -0.025374264 -0.0108326515 0.007214609
-0.023133354 0.03121669 0.016963877 -0.012829055 -0.017466776 0.006372607 0.008865926 0.02487138
0.0110737085 -0.0010057132 -0.027237698 0.025622679 -0.0091417115 -0.015107086 0.010049263 -0.032001603
0.02997879 0.019262485 0.014547685 0.008561289 -0.017133484 -0.012514629 -0.008676694 0.012194647
0.03195219 0.022433177 0.01100038 -0.023178412 -0.029967895 0.015410847 0.004983211 0.015138682
0.016952021 -0.003172501 0.034178223 0.020182645 0.029469702 -0.019482695 -0.012250051 0.043486968
0.014619657 -0.008989823 0.018237874 -0.023056589 -0.0011502429 0.027876245 0.019439429 0.025791446
0.0050393706 0.020353269 -0.017922927 0.02431872 0.009491059 0.030078072 -0.03011076 0.034178544
0.012065266 0.011335352 -0.008047117 0.022784676 -0.01685054 0.02194328 -0.001142655 0.03386643
0.025666527 -0.021163194 -0.04070734 0.028290853 0.019460214 0.0061825374 0.03009494 -0.0013149228
-0.007429536 0.030648477 0.020965556 -0.021449707 0.014688939 0.005368085 0.015924755 -0.009419519
0.02768422 0.0077153197 0.025126243 0.015022058 0.0064347396 -0.015091411 -0.01459415 -0.03493989
0.010447099 0.005809441 0.002518277 0.028594624 -0.027542828 0.037172176 -0.01064883 0.034655396
00000000: 74da 1ebd f3fe fcbc 3013 bcbc eb87 93bc
00000010: 428b 433b 0952 21bc 4889 253d 911d 043d
00000020: 11e4 cfbb 34bf 663c 6c0b 05bd c46b 143d
00000030: 5cc4 afbc da47 02bd 7aa7 b93c 564c a63c
00000040: ce14 2abb fddd f6bc de40 a83c 3952 e7bc
00000050: a6ed a1bc 40a5 033d e69a 783c a082 89bb
00000060: 1fac b9bc 2cf2 51bc eb70 36bc 2382 6e3b
00000070: 55b4 c5bc b0dd cfbc 6f7b 31bc 8768 ec3b
00000080: 2982 bdbc 25ba ff3c d4f7 8a3c f530 52bc
00000090: 7c16 8fbc 4dd1 d03b 6442 113c 10bf cb3c
000000a0: 806e 353c 23d2 83ba 9821 dfbc a7e6 d13c
000000b0: 1ec7 15bc b683 77bc aaa5 243c 1d14 03bd
000000c0: 1496 f53c 5ccc 9d3c 6a59 6e3c a644 0c3c
000000d0: 855b 8cbc 290a 4dbc b128 0ebc 0fcc 473c
000000e0: 4de0 023d c8c5 b73c f03a 343c a7e0 bdbc
000000f0: 3b7f f5bc c77d 7c3c 344a a33b 3c08 783c
00000100: f7de 8a3c bce9 4fbb 77fe 0b3d 1356 a53c
00000110: 726a f13c 2c9a 9fbc 70b4 48bc 641f 323d
00000120: 4987 6f3c 0d4a 13bc 9867 953c 2ce1 bcbc
00000130: bfc3 96ba b95c e43c 703f 9f3c 9548 d33c
00000140: 4e21 a53b e6bb a63c 1ad3 92bc 0d38 c73c
00000150: 6380 1b3c 4a66 f63c d7aa f6bc cdfe 0b3d
00000160: 65ad 453c eab7 393c 0ed8 03bc eea6 ba3c
00000170: 250a 8abc 65c2 b33c 24c5 95ba 87b7 0a3d
00000180: 9c42 d23c 6f5e adbc bdbc 26bd 38c2 e73c
00000190: 076b 9f3c e296 ca3b aa89 f63c 7d59 acba
000001a0: 7773 f3bb 8412 fb3c f5bf ab3c 4cb7 afbc
000001b0: e0a9 703c c3e6 af3b a274 823c 5454 1abc
000001c0: 04ca e23c cbd0 fc3b 8dd5 cd3c 141f 763c
000001d0: 82da d23b f741 77bc 4d1c 6fbc 211d 0fbd
000001e0: 4f2a 2b3c 205d be3b ad09 253b 463f ea3c
000001f0: 7fa1 e1bc da41 183d 6e78 2ebc d1f2 0d3d

weight f4 [64, 128]
0.0979323 -0.11943409 0.07903048 0.07522145 -0.08237525 0.122904204 0.017523238 -0.24542892
-0.10246997 0.075562924 0.24413861 -0.18820949 0.20032147 -0.09507203 -0.14152677 0.17051214
0.1439456 -0.11783757 0.108969554 0.13511805 -0.12050822 0.1691863 0.0019344442 0.118608594
0.13884245 -0.32059723 0.06273913 0.07276552 -0.07101466 -0.021522094 -0.13312174 0.0071377647
0.22842802 0.0022312975 0.123317584 0.077515595 -0.07093363 0.030051814 0.06956788 -0.122860946
0.07674972 0.038986653 -0.026130898 0.18827842 0.07958496 -0.18263552 -0.23406892 0.35004643
0.024322264 -0.07117046 0.039898742 -0.022214048 -0.02867175 0.059906367 0.17376514 -0.07007984
-0.22620194 -0.053112086 -0.14811012 0.07733358 0.16531143 0.2651587 0.1274391 0.12361174
0.07010009 0.21677531 0.2677015 -0.030364364 0.29925025 0.09877048 0.121823765 -0.14497665
0.23413196 0.10424205 -0.05043085 -0.04090864 0.059204187 0.08031608 0.06477968 -0.23313227
0.09431457 0.06842367 0.032516588 -0.22834308 0.071072735 -0.34530497 -0.09099208 0.30088246
0.250264 0.14567132 -0.10538233 0.23439722 -0.035776243 0.02821839 0.15168265 0.19090812
-0.119368784 -0.14306279 0.31931466 0.046589516 0.039701212 0.0656366 0.04116777 0.2890521
-0.028877262 -0.05308322 0.063864626 0.029670894 0.2621902 -0.30438006 0.42092976 -0.21273223
-0.27768356 0.032538608 0.19872773 0.1926668 -0.24214093 -0.017958265 -0.05250225 0.087913126
0.060246445 -0.08168132 0.0064368066 0.080481626 -0.05344512 -0.21476474 -0.01720484 -0.12158478
0.087376185 -0.012926973 -0.015567736 -0.0031934897 -0.096070364 0.05645307 -0.053851865 0.04470628
-0.037561003 0.005511916 0.10260722 0.08944608 -0.09669454 -0.07834109 0.024742112 -0.12447091
-0.09425793 0.1428981 -0.0318431 0.112513945 -0.037668407 -0.1459025 0.083452255 -0.053252865
-0.095910616 -0.13072465 -0.047843218 -0.12273457 0.08852568 0.04873675 0.056905232 0.12255433
0.013586743 0.014367381 0.11390962 0.045247715 0.0068506803 -0.0706407 -0.07480945 0.06774795
-0.07904616 -0.062545955 0.2014251 0.023988873 -0.13130677 0.06467014 0.0039438778 0.18633242
-0.0635866 -0.025284484 0.0017348158 0.07029897 -0.15130937 0.028545719 0.08235983 -0.05528337
0.0729829 -0.028914686 -0.00028499906 0.0041971267 0.0015643553 0.000753366 -0.11272607 0.0011937553
0.0015765307 -0.070138 -0.08279453 -0.059615437 -0.023300024 -0.10138275 0.12946413 -0.09149452
0.062492624 -0.052929644 -0.052486405 0.121135466 -0.06326811 -0.019220557 -0.06200641 0.10289107
-0.05756103 -0.039122615 0.03734413 0.1864503 -0.110198535 0.051799845 -0.08389945 0.11736727
-0.04798888 0.05366143 -0.017582998 -0.03815673 -0.12996443 -2.88937e-06 -0.03790947 -0.104487136
0.053402644 0.10388562 0.06751397 0.011098532 -0.06929161 -0.0033176406 -0.037614074 0.09859942
0.020917566 0.071380265 0.082158074 -0.059578698 0.17175794 0.046315417 0.024726253 -0.15992558
0.1786491 -0.12624912 -0.12795725 0.06628563 -0.038334105 0.039402325 0.065674424 0.11926185
0.08457183 0.046865553 0.2177802 0.07383121 0.012941958 0.080885015 0.0786387 0.09712332
00000000: bb90 c83d dc99 f4bd bbda a13d b40d 9a3d
00000010: 5bb4 a8bd 33b5 fb3d e58c 8f3c b851 7bbe
00000020: c7db d1bd bcc0 9a3d 79ff 793e fdb9 40be
00000030: 1221 4d3e 20b5 c2bd 65ec 10be bc9a 2e3e
00000040: 7a66 133e d354 f1bd 6e2b df3d 635c 0a3e
00000050: 03cd f6bd 2c3f 2d3e 2d8d fd3a 10e9 f23d
00000060: b72c 0e3e 5225 a4be 5f7d 803d 1706 953d
00000070: 2270 91bd 1a4f b0bc 1151 08be e9e3 e93b
00000080: 09e9 693e f63a 123b ee8d fc3d 7fc0 9e3d
00000090: a745 91bd 392f f63c 9b79 8e3d 859e fbbd
000000a0: f52e 9d3d 78b0 1f3d 7710 d6bc 0fcc 403e
000000b0: 71fd a23d ce04 3bbe c3af 6fbe 4939 b33e
000000c0: 7c3f c73c d1c1 91bd dd6c 233d 3cfa b5bc
000000d0: 05e1 eabc 6160 753d 7def 313e 0586 8fbd
000000e0: 7ba1 67be 0f8c 59bd 2eaa 17be 1161 9e3d
000000f0: 6647 293e e2c2 873e 657f 023e 2728 fd3d
00000100: a390 8f3d 59fa 5d3e 2c10 893e b0be f8bc
00000110: 5437 993e 2d48 ca3d bd7e f93d c274 14be
00000120: 4ac0 6f3e db7c d53d 9490 4ebd d18f 27bd
00000130: 1780 723d c27c a43d 35ab 843d 3aba 6ebe
00000140: ff27 c13d b621 8c3d 1d30 053d c5d2 69be
00000150: 958e 913d d0cb b0be 0e5a babd 440d 9a3e
00000160: 9a22 803e dd2a 153e b1d2 d7bd d305 703e
00000170: 1c8a 12bd 412a e73c b252 1b3e 6b7d 433e
00000180: 9f77 f4bd 0d7f 12be 367d a33e a6d4 3e3d
00000190: bd9d 223d 7b6c 863d 899f 283d a3fe 933e
000001a0: 0290 ecbc ca6d 59bd 75cb 823d 6010 f33c
000001b0: cb3d 863e b4d7 9bbe 1b84 d73e 7ad6 59be
000001c0: 8a2c 8ebe 3447 053d 487f 4b3e 724a 453e
000001d0: cbf3 77be 361d 93bc 990c 57bd cc0b b43d
000001e0: fac4 763d 8948 a7bd d9eb d23b 8dd3 a43d
000001f0: 45e9 5abd 4aeb 5bbe 2af1 8cbc 7101 f9bd
00000200: 49f2 b23d a8cb 53bc d10f 7fbc de49 51bb
00000210: 8ac0 c4bd 563b 673d c693 5cbd ef1d 373d
00000220: 91d9 19bd 4d9d b43b bc23 d23d 822f b73d
00000230: c907 c6bd 4b71 a0bd f8af ca3c 9bea febd
00000240: 4d0a c1bd e153 123e e96d 02bd b66d e63d
00000250: 304a 1abd 7767 15be 04e9 aa3d ad1f 5abd
00000260: c96c c4bd afdc 05be 40f7 43bd 435c fbbd
00000270: f44c b53d 30a0 473d 7615 693d c4fd fa3d
00000280: ee9a 5e3c 2a65 6b3c 7249 e93d ab55 393d
00000290: ac7b e03b 12ac 90bd b235 99bd 70bf 8a3d
000002a0: f4e2 a1bd 1818 80bd 6242 4e3e 5084 c43c
000002b0: 4875 06be c771 843d a53b 813b edcd 3e3e
000002c0: b139 82bd 6821 cfbc c262 e33a e8f8 8f3d
000002d0: d8f0 1abe b6d8 e93c 45ac a83d d170 62bd
000002e0: 0f78 953d 7ede ecbc ed6b 95b9 0d88 893b
000002f0: 0e0b cd3a 897d 453a eddc e6bd c877 9c3a
00000300: 98a3 ce3a 83a4 8fbd 2e90 a9bd 512f 74bd
00000310: b1df bebc c2a1 cfbd 3f92 043e 7b61 bbbd
00000320: 44f8 7f3d c1cc 58bd fcfb 56bd df15 f83d
00000330: b692 81bd 6e74 9dbc 6ffa 7dbd 8eb8 d23d
00000340: 1dc5 6bbd 093f 20bd 29f6 183d d4ec 3e3e
00000350: c5af e1bd 132c 543d 7ad3 abbd 405e f03d
00000360: fd8f 44bd 16cc 5b3d 380a 90bc 3b4a 1cbd
00000370: 6515 05be 00e7 41b6 f646 1bbd 5afd d5bd
00000380: bbbc 5a3d fcc1 d43d c444 8a3d 9ed6 353c
00000390: c2e8 8dbd c66c 59bb 3711 1abd 7eee c93d
000003a0: 515b ab3c d12f 923d 7e42 a83d cb08 74bd
000003b0: 50e1 2f3e 3cb5 3d3d b68e ca3c 88c3 23be
000003c0: caef 363e 7347 01be 3a07 03be c3c0 873d
000003d0: 3904 1dbd 5564 213d 5080 863d 8f3f f43d
000003e0: ff33 ad3d 18f6 3f3d c601 5f3e d134 973d
000003f0: 820a 543c 0ba7 a53d 540d a13d 97e8 c63d

bias f4 [64]
-0.065343216 0.02322462 0.0838764 -0.07373631 0.026113128 -0.057938155 -0.059045095 -0.012532701
0.05360761 0.06354334 0.01402733 -0.007386679 0.059632245 0.051041704 0.026928961 0.05778512
-0.036167912 0.024305977 0.03616752 0.006660851 -0.03096094 -0.03194713 0.060273927 0.009348366
-0.03945926 -0.07770362 -0.09062612 0.086755075 0.033155408 0.044912115 0.035454582 0.08615308
0.078128695 -0.012028816 -0.04340639 0.0033923602 0.07350973 -0.04230788 -0.031318773 -0.082016155
-0.07518689 -0.07629075 -0.033170085 0.02960771 0.0075521697 0.014356372 0.075600855 0.020545643
0.029556265 0.013884642 0.08698832 -0.0030907362 0.0039894166 0.042065043 -0.01613837 -0.073051624
0.016755618 0.0058120736 0.025021913 0.07625536 -0.054880362 0.08020796 -0.0405927 -0.04005062
00000000: aad2 85bd 8f41 be3c 64c7 ab3d 1003 97bd
00000010: 33eb d53c 8f50 6dbd 45d9 71bd f555 4dbc
00000020: a793 5b3d 0323 823d e3d2 653c f40b f2bb
00000030: f140 743d 1b11 513d 209a dc3c 17b0 6c3d
00000040: ce24 14bd 541d c73c 6524 143d 4543 da3b
00000050: cca1 fdbc feda 02bd cbe1 763d e429 193c
00000060: 08a0 21bd 1323 9fbd 309a b9bd a5ac b13d
00000070: f7cd 073d c4f5 373d d338 113d 0771 b03d
00000080: f001 a03d 8314 45bc e6ca 31bd 5c52 5e3b
00000090: 458c 963d 074b 2dbd 1d48 00bd 16f8 a7bd
000000a0: 96fb 99bd 533e 9cbd 5bdd 07bd de8b f23c
000000b0: 3178 f73b fd36 6b3c 9fd4 9a3d 564f a83c
000000c0: fb1f f23c 697c 633c ef26 b23d f38d 4abb
000000d0: a7b9 823b 654c 2c3d 9d34 84bc 179c 95bd
000000e0: 1443 893c 3573 be3b c1fa cc3c c52b 9c3d
000000f0: 3bca 60bd 1244 a43d 8844 26bd 1e0c 24bd

weight f4 [10, 64]
-0.38567176 -0.021400645 -0.3708516 -0.0778276 -0.11141178 -0.14424987 0.018843664 -0.039527766
0.49878642 0.8409964 -0.24955097 0.59842885 -0.00524421 -0.31293297 0.13349287 0.14511342
0.4233228 0.012365233 -0.09680602 -0.7621798 -0.2315818 -0.09428484 -0.065868504 -0.4242997
-0.13201034 0.3871459 0.010358317 -0.051890887 -0.046640027 -0.12996158 0.417395 -0.40191033
-0.16362482 0.07788278 0.00125386 0.12634896 0.29382226 -0.41766295 -0.07119322 -0.09814791
-0.025517268 -0.0378142 0.065587565 0.26826552 0.04420602 0.6123417 -0.1784979 -0.10488709
0.041949127 -0.020621972 -0.6726602 -0.032378506 0.054717805 -0.5426537 0.11552325 -0.022590524
0.1378144 -0.2576682 0.053807855 -0.07280774 0.2720277 -0.060643278 -0.12455607 0.002519808
0.97159487 0.081676774 0.39356947 0.07241763 -0.5157572 -0.07641509 0.2876692 -0.042189248
-0.3647522 -0.17782086 -0.47597253 -0.6662681 0.08714186 0.24609368 -0.14444314 0.15569383
0.522768 0.15399995 0.070437 0.49415112 0.096777685 0.009258671 0.07762154 -0.36247632
-0.37774178 0.053963237 0.023887899 0.08844678 0.15067326 0.09121818 -0.114374205 0.22711313
0.09806958 -0.057159644 0.096203476 0.09230352 -0.1317423 0.23514083 -0.110748045 0.11625201
0.47629982 -0.021586373 0.38043663 -0.58946943 0.5288489 -0.3947735 -0.32109895 -0.16197912
-0.016138427 0.31070343 0.12157465 -0.05318261 -0.05626701 0.19066533 0.08810042 0.12241211
-0.25410697 -0.35661656 -0.042511445 0.0713144 -0.599434 0.02404352 -0.085739896 -0.00772148
0.42094806 0.10751401 -0.2749052 -0.61209244 -0.2683204 0.11196649 0.62625307 -0.010341185
0.48996574 -0.2502317 0.5925643 -0.32769486 0.348334 0.12945321 0.1362156 0.2732992
-0.34658608 0.080415964 -0.07047406 -0.4069365 0.37886876 -0.0050339173 -0.048919402 0.19336839
-0.75067425 0.51771355 0.11370688 -0.037083946 -0.22161718 -0.07466319 0.100416474 0.5983945
-0.037585873 0.44761196 -0.039871532 0.044865023 0.39720353 -0.55739653 -0.045040797 0.062261775
0.25811324 -0.21034499 -0.028691612 0.31945398 0.27655095 0.6479685 -0.35155937 0.6793269
-0.115017556 -0.66202605 0.28464183 0.12434874 -0.07085201 -0.4236571 0.29508716 0.021692121
-0.29152417 -0.36942357 0.019623287 0.14044054 0.34922302 -0.00975205 -0.45392883 -0.058755223
-0.46764025 0.12704305 -0.022973431 -0.2663407 -0.22926448 0.29419598 0.102862746 0.026953952
0.43383458 0.65864694 -0.24396674 -0.03773126 0.5292283 0.83404815 0.34909776 -0.06951927
-0.4244614 -0.0701637 0.059778113 0.5528394 0.21587522 -0.03826216 -0.0014000551 0.7365903
0.58581644 -0.40947565 0.01844897 -0.36140567 0.32942978 -0.64635205 0.11301662 0.044082914
-0.4362269 -0.40582165 -0.033487212 -0.03663676 0.3632401 -0.08622617 -0.075757354 -0.006875059
0.20974885 0.109116636 0.11096731 0.3331084 -0.0043769414 -0.17507325 -0.4962842 -0.67563504
-0.031498417 0.21143192 0.4699514 0.098233104 -0.060159843 0.017866848 -0.40291962 0.008909483
0.19314352 0.549668 -0.0544093 0.07001879 -0.7824249 -0.0036523843 -0.1573036 -0.023063693
00000000: c576 c5be 6850 afbc 43e0 bdbe 1464 9fbd
00000010: dc2b e4bd 3db6 13be 075e 9a3c dee7 21bd
00000020: ef60 ff3e 8a4b 573f 4a8a 7fbe a232 193f
00000030: 9fd7 abbb c038 a0be 5bb2 083e 9d98 143e
00000040: c4bd d83e 8c97 4a3c 3c42 c6bd 371e 43bf
00000050: c823 6dbe 6918 c1bd 11e6 86bd cf3d d9be
00000060: b82d 07be fd37 c63e eeb5 293c 8a8b 54bd
00000070: 9d09 3fbd a614 05be ccb4 d53e 31c7 cdbe
00000080: 448d 27be 0281 9f3d 8f58 a43a 9f61 013e
00000090: df6f 963e ebd7 d5be c0cd 91bd c501 c9bd
000000a0: 9709 d1bc 10e3 1abd c652 863d 195a 893e
000000b0: 5f11 353d 6dc2 1c3f 27c8 36be 0bcf d6bd
000000c0: d9d2 2b3d 69ef a8bc 7533 2cbf 539f 04bd
000000d0: c71f 603d 5aeb 0abf 7497 ec3d c30f b9bc
000000e0: 381f 0d3e 16ed 83be a065 5c3d 391c 95bd
000000f0: 3747 8b3e 1665 78bd 4117 ffbd 5d23 253b
00000100: 71ba 783f 2746 a73d f081 c93e b24f 943d
00000110: aa08 04bf 847f 9cbd 6149 933e a2ce 2cbd
00000120: cdc0 babe ac16 36be acb2 f3be 8c90 2abf
00000130: 6e77 b23d fbff 7b3e e7e8 13be 346e 1f3e
00000140: 20d4 053f 2ab2 1d3e 4641 903d 6001 fd3e
00000150: 6133 c63d aeb1 173c 0bf8 9e3d 7f96 b9be
00000160: 5f67 c1be 8e08 5d3d 8eb0 c33c 9623 b53d
00000170: 174a 1a3e 99d0 ba3d 063d eabd 5890 683e
00000180: b4d8 c83d 3b20 6abd 5406 c53d a109 bd3d
00000190: 74e7 06be c2c8 703e dfcf e2bd 8915 ee3d
000001a0: 92dd f33e e8d5 b0bc 97c8 c23e 78e7 16bf
000001b0: a462 073f c11f cabe 1567 a4be dbdd 25be
000001c0: bc34 84bc 8514 9f3e 21fc f83d 02d6 59bd
000001d0: 3c78 66bd c63d 433e fe6d b43d 33b3 fa3d
000001e0: 4f1a 82be 7296 b6be 7b20 2ebd 490d 923d
000001f0: 8274 19bf ebf6 c43c 6698 afbd 7804 fdbb
00000200: 8186 d73e 4e30 dc3d 60c0 8cbe 17b2 1cbf
00000210: 4b61 89be b04e e53d 1f52 203f 136e 29bc
00000220: cadc fa3e 5f1e 80be 4bb2 173f 9fc7 a7be
00000230: d658 b23e 628f 043e 1a7c 0b3e dfed 8b3e
00000240: bb73 b1be 20b1 a43d b454 90bd fb59 d0be
00000250: 16fb c13e 8ff3 a4bb b65f 48bd 5d02 463e
00000260: 302c 40bf e088 043f 27df e83d 56e5 17bd
00000270: 9def 62be 04e9 98bd 27a7 cd3d 6230 193f
00000280: a5f3 19bd 652d e53e 5550 23bd 63c4 373d
00000290: 435e cb3e 8ab1 0ebf b37c 38bd 3406 7f3d
000002a0: 6b27 843e ad64 57be ac0a ebbc 798f a33e
000002b0: 1698 8d3e 43e1 253f 97ff b3be 5ee8 2d3f
000002c0: 538e ebbd 8a7a 29bf 93bc 913e 8daa fe3d
000002d0: dc1a 91bd 95e9 d8be aa15 973e adb3 b13c
000002e0: a842 95be 1625 bdbe 04c1 a03c a5cf 0f3e
000002f0: 5ccd b23e 10c7 1fbc 5c69 e8be 51a9 70bd
00000300: 8b6e efbe 9317 023e c732 bcbc cf5d 88be
00000310: 4fc4 6abe dba0 963e b4a9 d23d 89ce dc3c
00000320: 911f de3e 169d 283f 6bd2 79be 188c 1abd
00000330: 827b 073f 2e84 553f f1bc b23e 1e60 8ebd
00000340: 0153 d9be fcb1 8fbd e5d9 743d e286 0d3f
00000350: 650e 5d3e c8b8 1cbd 0e82 b7ba 2f91 3c3f
00000360: 11f8 153f cba6 d1be 4b22 973c 2a0a b9be
00000370: 05ab a83e 5477 25bf 4275 e73d 4990 343d
00000380: 2259 dfbe dbc7 cfbe e329 09bd 6d10 16bd
00000390: 9bfa b93e 5997 b0bd ac26 9bbd 2d48 e1bb
000003a0: 67c8 563e 8b78 df3d d442 e33d 2f8d aa3e
000003b0: 726c 8fbb 6746 33be f618 febe 6bf6 2cbf
000003c0: 7c04 01bd 9c81 583e 789d f03e 702e c93d
000003d0: 2b6a 76bd 7f5d 923c 7b4b cebe 15f9 113c
000003e0: 6ac7 453e 0bb7 0c3f 49dc 5ebd 0366 8f3d
000003f0: 004d 48bf d75c 6fbb 3214 21be 12f0 bcbc

bias f4 [10]
-0.049609654 -0.055970773 0.100348696 0.032906163 -0.021727702 -0.04977699 -0.07128894 0.06661962
0.053565197 0.0031399936
00000000: 7e33 4bbd 9c41 65bd 9e83 cd3d 9dc8 063d
00000010: 4bfe b1bc f5e2 4bbd f0ff 91bd de6f 883d
00000020: 2e67 5b3d 5ac8 4d3b
