my_mnist_model.pt (torch, 441806 bytes, 6 tensors)

weight f4 [128, 784]
00000000: 2dc3 27bc 8174 00bd 11c4 01b9 9f25 06bd
00000010: 45fa 09bc 365a e33c c5f3 d63a f508 6f3c
00000020: f97e ecbc 9531 1b3c efdd 96b7 8216 90bc
00000030: ded5 123d 352a eabc ccb7 923c 8913 443c
00000040: 7d9b d0bb a93b 0bbd 7105 613c 8649 c93a
00000050: 047b cebc 4ac1 f8bb 7338 f53b ee51 cebc
00000060: 1289 d83c 9915 84bb fb5c 0dbc b201 fbbc
00000070: 8637 053d 5b81 f8bb c4a3 dd3c b60a 0d3d
00000080: 3026 123d 1041 033c e99e 00bc 91a1 3bbc
00000090: 2ea5 de3c 100d e4bc 6eb8 84ba 0489 a6bc
000000a0: 285b 9a3c a915 25bc 0c60 d83c e4ba 893c
000000b0: 0207 bc3a d0e2 003d 9955 ecbc 2ec9 073d
000000c0: 11b8 453c b301 bd3b c5af 663c aaa7 ed3c
000000d0: 92c6 80bc 80ec d1bc 2931 6abc b9f5 d1bc
000000e0: e2bf 0dbb e32e 863c 1938 a6bc ccac 8e3c
000000f0: 9b05 25bc 2177 cabb 7271 c6b9 d7dc 10bc
00000100: 19b9 a7bc 7e2d 0a3d f9cc 3a3c b559 96bc
00000110: 85c7 acb9 4d7b f4bc a82b a53c 29ce b1ba
00000120: cffd 72bc 8f44 4d3c 07d3 903c f47c 073d
00000130: 955b 163d 11db 9abc 4b45 fc3c ac6b 853c
00000140: d772 d7bc 34e8 f93c 868e fb3c 026c d2bc
00000150: 7fa8 2eb8 fc13 a73c 09c7 ecbc f218 cb3b
00000160: 6199 48bc d322 c93c 82bb 833c ada9 a73c
00000170: 6586 d13b c3f7 14bc e5be 123b dd21 503c
00000180: 9355 e9bc 1a77 c23c 687d c63b 6460 ff3c
00000190: a4b8 ac3c 832f db3c 6a3e 113c 16c3 1d3c
000001a0: 375f 7dbc 3cfb 993c be6a a6bc f59b b4bc
000001b0: 5615 d73b c9bc 0bbd 88bf fdbb 215a a13b
000001c0: 46f9 bf3c 9f71 13bc f5bb f13a 8ac4 02bd
000001d0: 3b0d 123d 73e4 d0bc 794a 96bc 6872 f73c
000001e0: d678 4b3c 2078 af3c 94e1 debc f0f7 3ebc
000001f0: 4a37 65ba 2130 603c e7d0 08ba 5ced 5f3b
00000200: beec 073d 3cf6 023d 501d 58bc 630f f33c
00000210: db01 d039 4363 cf3b 3712 edba 3ab6 2d3c
00000220: 7f39 8db8 be23 ddbc 9618 013d 84f7 ba3c
00000230: 8989 f4bc 6911 64bc b035 973c 11a1 2b3b
00000240: 752a 07bd 8075 0abd 5533 183c e484 6e3b
00000250: 704f b7bc 0645 ebbc 7ef6 a93c b18c 993b
00000260: dd54 11bb b54c d7bb 0921 da3a 0e1b cc3c
00000270: 1e35 f139 abd0 b4ba d2ce bcbc 0434 88bc
00000280: 1e2a f43c cec7 b23c 5ba0 91bc 63a5 acbc
00000290: a25f 503c 566b 6ebc c563 253c f500 a2bb
000002a0: 573f edbc 7975 1f3c d35c 05bd 1aa3 813c
000002b0: dbac 103c 82af 0cbd 92c9 023d 1259 54bb
000002c0: ba79 053d e619 67bc 0aa0 9e3c 54a5 0f3c
000002d0: 722e 83bc b87c e13c fb6a f33c ea51 eebc
000002e0: 3cef 013d 54f3 5d3c dee8 c1bc 3c63 533c
000002f0: 8eb5 f6bc cc4f cc3c fc71 8c3c cd17 a2bc
00000300: 2957 99bc cc13 7e3c c6a9 993c a764 8cbc
00000310: 3530 8bbb 386e 043c 6d47 fe3a 1d78 df3b
00000320: a1a1 b5bc e914 81bc 4b7c 263c afda aabc
00000330: 6ece 953b 95c6 6dba d67e 4f3c 8144 51bb
00000340: 6a2c 053d 3f95 30bb aa81 d73b 1a49 233c
00000350: 06c6 243c a593 0cbd 6fa1 a5bc c889 463c
00000360: 729e d03c 8190 05bd ac97 443b dcba eebc
00000370: 8829 c33c bde9 46bc 0b4f 02ba f7db 6fbc
00000380: 533e 0e3c 26b2 143d 3c9f b13c b990 833c
00000390: bf1b d03c 05c5 db3c e657 ca3c 4145 a3bc
000003a0: fccc 00bd e9c9 83b8 f177 12bd b93a 4dbc
000003b0: fb70 083d d5cf d1bb aaf5 8939 22a9 4fbc
000003c0: eb67 92bc b067 ad3c 59b2 b83b c231 02bd
000003d0: 12fd 57bc a11c 5d3c 2c81 de3a 8bfd ed3c
000003e0: 81f9 a73c 3c86 05bd 7136 ab3a 2256 093d
000003f0: 70c7 0d3d 3565 b7bb 5860 8c3c 043d c6bb
-0.010239405 -0.031361107 -0.00012375439 -0.032750722 -0.008421485 0.027752977 0.0016399553 0.014589538
-0.028869139 0.0094722705 -1.798474e-05 -0.017588858 0.03584849 -0.028584579 0.017909907 0.011967548
-0.006366192 -0.033992443 0.0137342075 0.0015356995 -0.025205143 -0.007591401 0.007483536 -0.025185551
0.026432548 -0.004030895 -0.008628125 -0.030640457 0.032523654 -0.0075837797 0.027055629 0.034434043
0.03568095 0.008011118 -0.007850387 -0.011452095 0.027178373 -0.02783826 -0.0010125765 -0.020329006
0.018842295 -0.010075965 0.026412986 0.01681275 0.001434535 0.031466305 -0.02884941 0.033150844
0.012067811 0.005768025 0.014079993 0.029010613 -0.015719686 -0.025625467 -0.014293947 -0.025629865
-0.0021629264 0.01637978 -0.020290421 0.01741638 -0.010072137 -0.006178752 -0.00037850026 -0.008841715
-0.020474004 0.03373479 0.011401408 -0.018353323 -0.0003295505 -0.02984395 0.020162418 -0.0013565469
-0.0148310205 0.012528553 0.01767875 0.03307815 0.036708433 -0.018903287 0.03079476 0.016286694
-0.026299877 0.03050623 0.030707609 -0.025686268 -4.1641757e-05 0.020395271 -0.028903501 0.006198042
-0.0122436 0.024552738 0.016080622 0.02046665 0.006394195 -0.009092274 0.0022391614 0.012703386
-0.028483188 0.023738433 0.00605743 0.031173892 0.021084137 0.026756054 0.008864978 0.009629032
-0.0154645955 0.018796556 -0.02031457 -0.022047022 0.0065638227 -0.034115586 -0.0077437796 0.0049240743
0.023434293 -0.008999257 0.0018442856 -0.031925716 0.03565715 -0.025499558 -0.018346058 0.03020592
0.012418946 0.021419585 -0.027207173 -0.011655793 -0.00087438955 0.01368335 -0.0005219117 0.0034168577
0.03318476 0.03197311 -0.013190582 0.029670423 0.00039674234 0.0063289716 -0.0018087093 0.010602528
-6.7341134e-05 -0.026994582 0.031517588 0.022823103 -0.029850738 -0.0139201665 0.018458217 0.0026188532
-0.032999475 -0.033803463 0.009289582 0.0036395127 -0.022376746 -0.028719436 0.02074742 0.004685961
-0.0022175827 -0.0065704235 0.0016641925 0.024915244 0.00046006677 -0.0013795098 -0.023047838 -0.016626365
0.02980524 0.02182379 -0.017776659 -0.021074956 0.012718113 -0.014551958 0.010094588 -0.0049439617
-0.028960867 0.0097325975 -0.032559227 0.015824843 0.008830274 -0.034347065 0.031930514 -0.0032401723
0.03258679 -0.014105296 0.019363422 0.008767445 -0.016013358 0.02752529 0.029714098 -0.029091794
0.031722292 0.0135467835 -0.02367061 0.012902077 -0.030115869 0.024940394 0.017144196 -0.01978674
-0.018718319 0.01550765 0.018757712 -0.017137839 -0.00424769 0.008082919 0.0019399949 0.0068197385
-0.022171797 -0.015757041 0.01016147 -0.02085623 0.0045717275 -0.00090704235 0.012664517 -0.00319317
0.03251306 -0.0026944426 0.0065767365 0.009966159 0.010056978 -0.034320492 -0.02021858 0.012117811
0.025466178 -0.032608513 0.002999763 -0.029141836 0.023823515 -0.0121406885 -0.0004970885 -0.014639846
0.008681851 0.036302708 0.021682374 0.01606022 0.025403855 0.026827345 0.024700116 -0.019930484
-0.03144549 -6.2841755e-05 -0.035758916 -0.012526208 0.03331087 -0.0064029493 0.0002631371 -0.012674602
-0.017871818 0.021167606 0.005636495 -0.031785734 -0.013182895 0.013495595 0.0016975752 0.029051563
0.020504715 -0.03259872 0.001306249 0.03352941 0.034614027 -0.0055967816 0.017135784 -0.006049754

bias f4 [128]
00000000: 317e 02bd 77f5 e0bc 6b41 253d bb35 dfbb
00000010: eb97 8c3b c66e cd3c ce21 b33b 1436 b43c
00000020: c680 8e3c 1c47 cfba 89a7 02bb 1f36 9a3c
00000030: e13b 973c 1dd6 89bc 208b 13bb 037a 8b3c
00000040: ee60 bcbb e00e 0e3c 4826 d63c eed7 02bc
00000050: e487 cd3c e1d4 073d 468c ee3b 1b2d 14bc
00000060: d612 d7bc 7f5b 08bd 05f9 e9bb 5d58 c33c
00000070: 3e7a 5ebb 8247 a7bc 89f9 a33c b78c 4fbc
00000080: 1b84 43bc 1c2c 233c 6171 e1bc 4c83 9fbb
00000090: 6046 0fbc cb65 333b 16ed 22bd df38 9abb
000000a0: c217 5f3b c9e5 ba3c 9833 c63c fea4 e43b
000000b0: 556d 9a3c 2a98 36bc 827b e0bc af2b eb3c
000000c0: 59f8 bd3c 37a8 28bd b8cf 143d dfd9 c53b
000000d0: 10ed 5c3b b2eb 053d 920d 52bc 361b f7bc
000000e0: 2859 81bc 2a5e 7e3c e383 27bc 4319 293c
000000f0: 3c10 ff3a 9313 9b3b aefa 163d 8af7 b8bc
00000100: ccb8 183c 08fd 70bc d4f9 853c 5faf debc
00000110: 6c5b cc3c 2949 50bc 2581 83bc 378d 01bd
00000120: 9e35 abbc d310 d7bc 3f8a d13c aea0 e33c
00000130: c75f 28bc 8275 ae3c 23a5 863c 3d4d a23c
00000140: d559 0c3c 2dfe 35bc 84eb 1bbd 2030 283d
00000150: f5e5 9f3b cef0 9e3b 7b6d 9b3c ca93 b0bc
00000160: 5ca5 ebbc 2738 d63c 85c1 0c3d c6a1 47bc
00000170: e337 d9bc 5a14 023d a41a bebc ed7c db3c
00000180: 5fef 1ebd a03a dabc 050e b6bc 5630 c93c
00000190: 452d e2bc 55f5 5c3c 955d 153c fc5e f4bc
000001a0: d74e f9bc 58cd 50bc 018f 9b3c 86cc 023d
000001b0: e56c 27bc 5b63 89bc a088 033c c200 0ebd
000001c0: 3ea1 c7bc 498b 923b c2ed 18bc 1c62 bdbc
000001d0: 8184 ca3b 42d9 f63c 33cd 25bc c5f6 c03b
000001e0: 0e16 f63c a33f cb3c a651 523d 491e 01bd
000001f0: 03c8 28bd 0e0c 03bb 09dc 2abc d344 ad3c
-0.031858627 -0.027460797 0.04034559 -0.006811825 0.004290571 0.025077235 0.0054666763 0.021998443
0.017395388 -0.0015814039 -0.0019936285 0.018824635 0.01846117 -0.01682573 -0.0022513345 0.017025953
-0.0057488596 0.008670539 0.0261413 -0.007986052 0.025089212 0.033162 0.0072799055 -0.009043957
-0.026254099 -0.033290382 -0.007140281 0.023845846 -0.0033947374 -0.02041984 0.020016449 -0.012667826
-0.011933352 0.009959247 -0.027519884 -0.0048679467 -0.008744806 0.0027373906 -0.039776884 -0.0047064866
0.003404126 0.022814648 0.024194524 0.0069776764 0.018850962 -0.011144677 -0.027402643 0.028707353
0.02318971 -0.041176047 0.03633091 0.006037935 0.0033710636 0.03269548 -0.012820618 -0.030164342
-0.015789583 0.01552538 -0.010224315 0.010320964 0.0019459794 0.004732558 0.03686016 -0.022578973
0.009321403 -0.014708765 0.016354479 -0.027183233 0.024945937 -0.012712755 -0.016052792 -0.031628814
-0.02089959 -0.02625314 0.025578616 0.027786579 -0.010276741 0.021296266 0.016436165 0.01981222
0.0085663395 -0.0111079635 -0.038066402 0.04106152 0.004879708 0.0048504835 0.018973103 -0.021554846
-0.028765373 0.026149822 0.034364242 -0.012184566 -0.026515907 0.03175769 -0.023206063 0.026792968
-0.0388025 -0.026639283 -0.022223482 0.024559181 -0.027609477 0.013486226 0.00911655 -0.029830448
-0.030433102 -0.01274427 0.018989088 0.03193333 -0.010218834 -0.01677101 0.008028179 -0.03466869
-0.024368878 0.0044721705 -0.00933403 -0.023118071 0.0061803465 0.030132893 -0.010119724 0.005888792
0.030039813 0.024810618 0.051347397 -0.031523023 -0.04120637 -0.0019996199 -0.010428437 0.021150982

weight f4 [64, 128]
00000000: 8e67 a03c 6bb0 853d caf9 b7bd 6d0f 05be
00000010: cadb 0fbd f729 7ebd b3e1 953c 15a0 233e
00000020: 3b2f b4bb 0bfb dcbc 7094 123e 2ddc b7bd
00000030: d230 c03c 738c 823d c89d 50bd 4c36 9c3d
00000040: 34f9 34bd cdd5 583c 30c4 803e 680b 2f3e
00000050: 4bee 423d 4c0b cfbd b89c fdbd bdd3 653e
00000060: d9aa a8be b6e0 2e3e c1d2 20be dc73 89bc
00000070: d595 1c3e 5e80 5ebd 664b 1c3e 115c 85be
00000080: 214c 1f3e dccb c6bc 98b2 fa3c 0f6c 393e
00000090: 71d2 5c3e 64d5 dabd ba0d be3d 04ea 1dbe
000000a0: 6844 3a3e dc86 59bd 8354 03bd 3727 223e
000000b0: e0b8 5dbc 54b3 153e bdf5 4cbe e82c 3eb9
000000c0: 2b27 41be ea72 383e 8219 59bd cf18 0a3e
000000d0: 65bd b9bc 8310 6b3c 5bc8 adbd b7d6 b7bd
000000e0: 288e 21be 1afd b03d 52d3 a5bd 6899 86be
000000f0: 87fd 9b3c 0b82 c7bc 83d4 31be 9038 923e
00000100: a0e2 4e3d 5f4a ff3d 7f09 263e 373a b1bd
00000110: b8bd febd 465e f1bc 3d5c 81bd 93ea e0bc
00000120: afa2 9ebd 3e44 6abe b9cd 2a3c 01b2 fabd
00000130: d4cc db3b b390 373e c85f a7bd ab4a 863d
00000140: c6a8 7fbd 6a2b 0e3e e8ce 073e 31b9 2b3d
00000150: 6fb6 1f3e 9860 e33d dcda 103e c54c 4e3e
00000160: 821e a93d cd6d 393e 541b 313e 32b0 803c
00000170: e91f df3d 63c2 c93d b373 913e 7bf6 4a3d
00000180: a20c 8f3d 2382 47bd 0ca1 8bbc 2ed1 56bd
00000190: f3fc 833e 731f 723d 1088 e9bc e892 7a3e
000001a0: d7ff e2bd 986b e63c 88ea 863e 9c4b debc
000001b0: ba38 fe3d 6b5f 503d 4623 683e 0114 d63d
000001c0: 700d e1bd cf1b b9bd 33dc a63d e0dc 33be
000001d0: adca 4dbd fb82 e9bc 5281 09be a5ae 86bd
000001e0: 13cd 95bd 208f efbc faf3 babb c283 0e3e
000001f0: 333e 77be fefe 163e 77a2 573e 857c 653e
00000200: 2ac4 c13b 8bd9 aabd 18ba 02bd e645 433d
00000210: 9d6f ed3d fa05 413d f275 9cbc 260c 953d
00000220: 1efb ae3d 4139 153e 63ec d93c 785c 433e
00000230: ecf5 7abd aefc c7bd 583c 03bd 7a65 1a3c
00000240: 8408 433d 4afe 123d 597d 6cbe 85f4 df3d
00000250: efba f93d e2a4 403e c62e a33c c0d8 69be
00000260: b81e e53d 0cf6 a9bd 0e9b 1d3e bb0b 8dbd
00000270: 1697 07bd aa06 fc3d 3fb7 a6bd 8738 363e
00000280: aaf9 9abd 1a32 093e ce78 3f3d 15c2 b9bc
00000290: 9268 25bc a306 753e de45 c6bd bc56 1b3e
000002a0: 14bc d33d 9efa 16bd ec52 b63d 4afb 313d
000002b0: 4828 013d f2ff 46bb acc5 a53c 0163 07be
000002c0: 435e 53bd 0583 53bd 2d79 093e 35d1 01be
000002d0: 4226 f13d 2263 8bbe 401a a13c 427a 2dbe
000002e0: 29fc 223e 1121 613d b103 f7bc e993 533e
000002f0: 17b8 8fbc 0c72 d13c 93dc 803d 2d30 05bd
00000300: d71a db3d ecc5 6abe 0c81 c5bc f3e1 8b3d
00000310: 6673 743e 8cc3 9a3e 307e aebd 2250 b2bd
00000320: 137a a73d 5f66 203e 0d6c 3cbd 8c48 b23e
00000330: dd7b 82bb f877 1ebe 0d40 2a3e e737 c33d
00000340: 9a43 4f3e 4e37 39be 5feb 41bd 0195 af3d
00000350: 8600 80bd fe81 48bd ca67 13be 2a99 013d
00000360: 5df0 953d aa82 98bd 047e 00bd 49f4 9ebd
00000370: c88c 09bd 4544 c8bd 6d7f 84be ffcc e4bd
00000380: c331 bfbe adb6 833d 2c95 05be be6b 823d
00000390: 9cec a53d 577f 093e 25b9 b8bc 1069 d1bd
000003a0: fed7 e83d 6346 9239 63bb 053c 3af8 efbd
000003b0: 9dd3 6d3d d27d 663e d68e b9be 690f ac3d
000003c0: eca8 e53c 4ca8 3a3e 52e5 d93c 712d df3d
000003d0: 5f2f 00bd 5a9a 93bc c67c 963d 4ee5 5bbd
000003e0: f65a 84bc 683a 533c 626f cdbd 0cce 67be
000003f0: ca77 b93d f3ff 943d 67eb be3d 917d 11be
0.019580629 0.0652779 -0.0898319 -0.12994166 -0.035121717 -0.06205174 0.018296098 0.15979035
-0.0054987944 -0.026975175 0.14314437 -0.08977542 0.02346078 0.06374445 -0.050931722 0.07627544
-0.04418297 0.013234568 0.2514968 0.17094195 0.047590535 -0.101095766 -0.12383407 0.22444053
-0.32942846 0.17077908 -0.15705396 -0.016778879 0.15291531 -0.05432164 0.15263137 -0.26046804
0.15556385 -0.02426713 0.030602738 0.18107627 0.21564652 -0.10685232 0.09279962 -0.15421301
0.18190157 -0.053107128 -0.03206302 0.15835272 -0.013532847 0.1461919 -0.20015617 -0.00018136541
-0.18862598 0.18012586 -0.05300284 0.13486026 -0.022673318 0.014347198 -0.084854804 -0.089765005
-0.15776885 0.08642025 -0.08096947 -0.26288915 0.01904179 -0.024354002 -0.17366223 0.2855878
0.050509095 0.12465357 0.1621456 -0.08653682 -0.1243853 -0.029463898 -0.06316421 -0.027455604
-0.07745873 -0.22877595 0.010425025 -0.12240983 0.006707767 0.17926292 -0.08172566 0.065572105
-0.062416814 0.13883749 0.13262522 0.04192466 0.15596937 0.11102408 0.14145988 0.20146473
0.08257772 0.18108292 0.17295581 0.015709016 0.10894758 0.098515294 0.28408584 0.04955147
0.069848314 -0.048708092 -0.017044567 -0.052445583 0.25778922 0.059112024 -0.028507262 0.24470103
-0.11083954 0.028127477 0.26350808 -0.027135663 0.124131635 0.050872248 0.22669706 0.10453034
-0.10988891 -0.09038507 0.081474684 -0.17564726 -0.050242115 -0.02850484 -0.13428238 -0.065762796
-0.073145054 -0.029243052 -0.005705354 0.13917449 -0.24144821 0.1474571 0.21058069 0.22410782
0.005913277 -0.08342274 -0.031915754 0.047674082 0.11593554 0.04712484 -0.01909921 0.07277708
0.085439906 0.14572622 0.026601976 0.19078243 -0.061269686 -0.09764992 -0.03203997 0.009423608
0.047615543 0.03588704 -0.23094691 0.1093531 0.12193858 0.18812898 0.019919764 -0.2283659
0.111875 -0.08298883 0.1539118 -0.06887003 -0.03310307 0.123059586 -0.0814042 0.17795001
-0.07567151 0.13398018 0.046746068 -0.022675553 -0.010095732 0.23928313 -0.09681295 0.15169805
0.103386074 -0.0368601 0.08902535 0.04345254 0.031532556 -0.0030364958 0.020235859 -0.1322136
-0.051603567 -0.05163862 0.13425131 -0.12677462 0.11774875 -0.2722407 0.019665837 -0.16941169
0.15916504 0.054963175 -0.030153127 0.20661892 -0.017543836 0.025567077 0.06292071 -0.032516647
0.10698479 -0.22927064 -0.024109386 0.06830206 0.23872146 0.30227315 -0.08520162 -0.0870669
0.08177581 0.15664051 -0.046001483 0.34820974 -0.003982051 -0.15475452 0.16625996 0.09532147
0.20240632 -0.18087503 -0.047343608 0.08573342 -0.062501 -0.048952095 -0.14395061 0.03164021
0.07321236 -0.07446797 -0.031370178 -0.077614374 -0.033581525 -0.097786464 -0.25878468 -0.111719124
-0.37342653 0.06431327 -0.13045186 0.063682064 0.0810177 0.13427483 -0.022549221 -0.10225117
0.11369322 0.00027899732 0.008162352 -0.11717267 0.05806314 0.22508934 -0.36241788 0.08401377
0.02803465 0.18228263 0.026598606 0.10897339 -0.031295177 -0.018017936 0.073480174 -0.05368548
-0.016156655 0.012892343 -0.1003101 -0.22637194 0.09056051 0.07275381 0.09322243 -0.14208056

bias f4 [64]
00000000: 79ac 26bd 81d7 573d d9ff 973d 1f92 acbd
00000010: 1948 a9bd 85af 193d f87e 27bd 4cac 2bbd
00000020: 0c2b 673d 0f94 803d d81e 00bc 75d0 be3d
00000030: 4b0b b8bc fc85 18bc 4418 1ebd dbb4 c33d
00000040: 2a72 413c 7a90 793d 85d9 933c 6d81 a53d
00000050: e709 3fbd d575 a23d 0308 ae3c 678e 4dbd
00000060: b218 ee3d 83c9 e0bc 2270 c43c d32d b63d
00000070: f6a1 873d 15a9 903d ba24 f13b db2d 42bc
00000080: 2b04 873c 496c 3e3d c416 5d3d effa 383d
00000090: fa79 b73d bcc4 f53d b2a2 71bd 6d03 453d
000000a0: 315c 533d 855a e23d fa84 95bc 42e7 013d
000000b0: 5f8d f03c cc1d 1a3c 4e47 0f3b c9dc d73d
000000c0: 8b5d 91bd b66f c03d d1da 6cbd 6645 b13c
000000d0: 1f4d a83d 8465 3a3d 2efc a8bd f28e 1ebc
000000e0: 31ee b7bd 27c0 523d 7dcf b43d b5fc 2c3e
000000f0: 98cd fc3c 1cbf c73d dff7 1fbd 46d4 8a3d
-0.040691826 0.052695755 0.07421846 -0.08426308 -0.08265705 0.037520904 -0.04089257 -0.041912362
0.056437537 0.0627824 -0.007819854 0.09317104 -0.022466322 -0.009309288 -0.03859736 0.0955598
0.011807004 0.0609288 0.018048057 0.08081327 -0.046640303 0.07932631 0.021244055 -0.050184634
0.11625804 -0.027439838 0.02397925 0.08895459 0.066226885 0.070635 0.0073591145 -0.011851753
0.01648148 0.046489988 0.05397679 0.045161184 0.08958812 0.12000415 -0.05899305 0.04809897
0.051601592 0.110524215 -0.018251885 0.031714685 0.029364286 0.009406518 0.002186257 0.10540158
-0.0709792 0.09396307 -0.057825867 0.021639537 0.08217835 0.04550697 -0.082512245 -0.0096776355
-0.08980978 0.051452782 0.08828638 0.16893275 0.030859753 0.09753248 -0.039054748 0.06778769

weight f4 [10, 64]
00000000: 817e dd3e a534 833d 336c b4bd 2889 e73d
00000010: a3a3 903e 7028 21bd 1369 423e 495c 403d
00000020: 29dc f33d 3fa3 51be eb01 debe 7424 17bf
00000030: c373 1f3f 5b53 b03e ec49 9e3d d635 2c3e
00000040: ebd5 0c3b 7c27 fa3d 05ec 333d db46 203f
00000050: b3d0 033f 17f9 a83e 20c1 adbe 284a b4bd
00000060: 1747 70bd 601e 33be 08e8 8cbd 1a3f 4d3e
00000070: d0c8 233e b672 88be 0d1f b5be 4504 2fbe
00000080: 2486 c23d d580 bf3c 12a1 173e 373b 34bf
00000090: 575c 1b3e d293 f2be a376 d1bc d1f8 9abe
000000a0: 9106 b7be 1cbd 31bd b138 06be 6b80 a6be
000000b0: 8ac9 a5be 8aed 11be 5f4c 95bd 6f1d 36bf
000000c0: b4d8 9e3c 7634 2abe 84ce 47be 53eb c43e
000000d0: 2987 26be 24a3 85bd ed0b 66bd 73a6 e53e
000000e0: c7ac ef3e aaee 1f3e 64f2 3b3e cc77 debc
000000f0: a8c2 4bbd 8f83 0abf eb45 233f 56da 2c3d
00000100: 6529 e13e 4f52 d6bd 94bc d0bc c8c2 76bd
00000110: cda2 1d3d 3181 a6be 0258 52be 0041 433e
00000120: f9f3 72be 9e8f ea3e 1400 dc3e dca8 ef3d
00000130: 8655 b2be 6765 083e 57af 67be b0c6 9a3e
00000140: 86ef c63d 1a86 0f3e 7eed 5a3e 8ac9 c3be
00000150: 3c38 e13e ec01 833e f580 69bd cc38 aebc
00000160: 666c cbbe 9f21 463e c894 c73d 109d 4abf
00000170: ce7b 2ebe 645a e7bd 4b50 273e 57e6 683e
00000180: f15f c33e 166e 9dbc 4948 643e 44e7 273f
00000190: 4e13 bfbe b2f0 00bf a30b 0cbe 6348 a83e
000001a0: d4ed 163f d3c0 0a3e 0a4b c7bd c947 123e
000001b0: 3a42 f6be 6968 b13d 9055 80bd 951f f9be
000001c0: 456f 073d d2c6 b83d c738 b83e ddd3 40be
000001d0: bb18 7a3e b9ae 6dbd cbd7 d43e c52b f2be
000001e0: 5190 efbe c97f a1bd 7e43 4b3e aecc 42be
000001f0: bde2 14be 27da 2c3f 17ea 4fbe 4d4c 3ebd
00000200: 3667 293f cf97 7ebb 03de d33e e36d dd3d
00000210: da4f d53e f1b5 d9be 7bf9 133e 74ea 43bf
00000220: 9b33 503f c5dd e83e 507c e63e ad88 03bf
00000230: 0d77 35be a4ec 37bc 7fc4 743e af37 ac3e
00000240: 0b49 c0bd 0221 8c3d 5874 9dbe 86b1 f83d
00000250: f94f c2be 70f7 7dbe 7320 efbe 7117 c3bd
00000260: b1e1 8cbe 0f52 753e 2490 c93e a6bb 89be
00000270: 0ca7 ccbe 738d c53e 1d78 d2be ded7 4b3f
00000280: 8a1e 37be b34b 9bbd 61e1 86bd 7ec1 c0be
00000290: 1a2b 243f 2d9d f13d 2a8b 9fbd 7ab4 733c
000002a0: d6d8 893e 6d8a 1b3e f30d dc3c 59c4 fc3e
000002b0: 64f5 733e 1891 3ebd 5141 13bd f7cf 45bf
000002c0: 6625 f73d ae95 963e d304 823e 9e82 9ebe
000002d0: 436b 203e ca2c 02bb ea4f 96be 2b9d 793e
000002e0: 32cd 6d3e 63a5 733e 7e52 ec3e 9326 0e3f
000002f0: 4099 f9bb 26a2 09bf da5e d2be 569c 9e3d
00000300: 8335 693e bd9a 31bf ae5a f8be a810 413c
00000310: 577d a53e 3480 66be 36ee 3fbe 21ea a6bd
00000320: 17b6 cb3e 2f95 81be 6bdc d5be 8684 253f
00000330: aa9f eabd dae0 893d 89de c6be cf40 b63e
00000340: 61f6 e9bd 7398 bf3d 1a07 8ebd 574a 16bf
00000350: a79d b0be 9103 a9be a228 bcbd f29b 31be
00000360: 2537 16bf 337e 87be ee06 85be 501b 843d
00000370: 26e4 163f 12f9 85bd 2caa 1f3f 5694 bb3e
00000380: e067 8fbe 773a 2cbc b408 573e a306 113f
00000390: 2611 0f3d 015e 103f c702 81bb b3bd 16bf
000003a0: 3dac 0fbf 30dc 4fbf 6338 033d 8d46 0c3f
000003b0: 3b3f d93e 0500 bebd fa5d e1be ceab 1c3e
000003c0: 2179 373d 4121 10be 0179 17bf ca97 df3e
000003d0: ba51 53be d713 e23d b919 e7be 936e ca3d
000003e0: 06b2 2d3e 3901 543f 8bcd 883e ebf4 18be
000003f0: 9605 4a3e 668f 013e 00d1 f33d ea0c fabb
0.43260577 0.064065255 -0.088097 0.11305457 0.28249845 -0.039345205 0.18985395 0.04696301
0.119072266 -0.2047243 -0.43360838 -0.5904 0.62286013 0.34438595 0.07728943 0.16817412
0.002148981 0.12214562 0.043926258 0.62608117 0.51490325 0.3300254 -0.33936405 -0.08803207
-0.058661547 -0.17492056 -0.06880194 0.20043603 0.15994573 -0.26650017 -0.35375252 -0.17091472
0.094982415 0.023376862 0.14807537 -0.70402855 0.15171944 -0.47378403 -0.025569266 -0.30267957
-0.35747197 -0.04339324 -0.13107564 -0.3251985 -0.32380325 -0.1425077 -0.07289957 -0.7113866
0.019390441 -0.16621575 -0.19512373 0.38460788 -0.16262497 -0.06525257 -0.056163717 0.44853553
0.46811506 0.15618387 0.18354183 -0.027156733 -0.049746186 -0.5410699 0.6377856 0.04220041
0.43976894 -0.10464918 -0.025480546 -0.06024435 0.038485337 -0.3252044 -0.20541385 0.19067764
-0.2372588 0.45812696 0.4296881 0.11702129 -0.34830874 0.13319932 -0.2262548 0.30229712
0.09713654 0.14016 0.21379659 -0.382397 0.43988216 0.25587404 -0.05700775 -0.021267317
-0.3973114 0.19348763 0.09745175 -0.7914591 -0.17039415 -0.112965375 0.16339223 0.22744118
0.38159135 -0.019217532 0.222932 0.6558726 -0.37319416 -0.5036727 -0.13676314 0.32867727
0.58956647 0.13550119 -0.097311094 0.14285196 -0.48097402 0.08662493 -0.0626632 -0.48656908
0.0330651 0.09022297 0.35980818 -0.1883082 0.24423496 -0.058027957 0.41570887 -0.47299019
-0.46789792 -0.07885701 0.19849965 -0.19023392 -0.14539619 0.67520374 -0.20304142 -0.046459485
0.6617311 -0.003884781 0.4138032 0.10811975 0.41662484 -0.42521623 0.14450638 -0.7652962
0.81328744 0.45481697 0.45016718 -0.51380426 -0.17721196 -0.011225853 0.23903082 0.33636233
-0.09388932 0.06842233 -0.30752826 0.12143235 -0.3795164 -0.24801421 -0.46704444 -0.095259555
-0.2751594 0.23957084 0.39367783 -0.26900977 -0.39971197 0.3858448 -0.41107264 0.7962626
-0.17882743 -0.07582798 -0.06585956 -0.37647623 0.6412827 0.11797557 -0.07790215 0.014874572
0.26923245 0.15189524 0.02686212 0.4936855 0.23824078 -0.04652509 -0.035950962 -0.77270454
0.1206768 0.29411072 0.25394306 -0.30959028 0.15665917 -0.0019863122 -0.29357845 0.24376361
0.23222807 0.23793559 0.46156687 0.5552761 -0.007617146 -0.53763044 -0.4108799 0.077446625
0.2277432 -0.69376737 -0.48506683 0.011783756 0.3232219 -0.22509843 -0.18743214 -0.08150125
0.3978736 -0.2530913 -0.41769728 0.6465534 -0.11456235 0.0673234 -0.38841656 0.3559632
-0.11423946 0.09355249 -0.06934948 -0.58707184 -0.3449528 -0.33010533 -0.091874376 -0.17344645
-0.58677894 -0.2646347 -0.2598185 0.06450522 0.58941877 -0.06541647 0.62369037 0.3663661
-0.28008938 -0.010511986 0.20999414 0.5665075 0.034928463 0.5639344 -0.0039370987 -0.5888321
-0.5612219 -0.81195354 0.032036196 0.5479515 0.42431054 -0.092773475 -0.4401701 0.15299913
0.044793252 -0.14075185 -0.5916901 0.43670493 -0.20636645 0.110389404 -0.45136812 0.098843716
0.16962442 0.82814366 0.26719317 -0.14937179 0.19728693 0.12652358 0.11905098 -0.007630934

bias f4 [10]
00000000: ca8e e83d 43f4 7f3d 054d c7bd 6d06 cc3d
00000010: 04e1 12bd cdbb fbbd ce42 313d 6010 28be
00000020: 1831 f63d 666f 0ebe
0.1135536 0.062488806 -0.09731487 0.09962163 -0.035859123 -0.122916795 0.0432766 -0.16412497
0.12021083 -0.13909683
